…
ss="line">69</span><br><span class="line">70</span><br><span class="line">71</span><br><span class="line">72</span><br><span class="line">73</span><br><span class="line">74</span><br><span class="line">75</span><br><span class="line">76</span><br><span class="line">77</span><br><span class="line">78</span><br><span class="line">79</span><br><span class="line">80</span><br><span class="line">81</span><br><span class="line">82</span><br><span class="line">83</span><br><span class="line">84</span><br></pre></td><td class="code"><pre><span class="line">ResNet(</span><br><span class="line">  (conv1): Conv2d(3, 64, kernel_size=(7, 7), stride=(2, 2), padding=(3, 3), bias=False)</span><br><span class="line">  (bn1): BatchNorm2d(64, eps=1e-05, momentum=0.1, affine=True, track_running_stats=True)</span><br><span class="line">  (relu): ReLU(inplace=True)</span><br><span class="line">  (maxpool): MaxPool2d(kernel_size=3, stride=2, padding=1, dilation=1, ceil_mode=False)</span><br><span class="line">  (layer1): Sequential(</span><br><span class="line">    (0): BasicBlock(</span><br><span class="line">      (conv1): Conv2d(64, 64, kernel_size=(3, 3), stride=(1, 1), padding=(1, 1), bias=False)</span><br><span class="line">      (bn1): BatchNorm2d(64, eps=1e-05, momentum=0.1, affine=True, track_running_stats=True)</span><br><span class="line">      (relu): ReLU(inplace=True)</span><br><span class="line">      (conv2): Conv2d(64, 64, kernel_size=(3, 3), stride=(1, 1), padding=(1, 1), bias=False)</span><br><span class="line">      (bn2): BatchNorm2d(64, eps=1e-05, momentum=0.1, affine=True, track_running_stats=True)</span><br><span class="line">    )</span><br><span class="line">    (1): BasicBlock(</span><br><span class="line">      (conv1): Conv2d(64, 64, kernel_size=(3, 3), stride=(1, 1), padding=(1, 1), bias=False)</span><br><span class="line">      (bn1): BatchNorm2d(64, eps=1e-05, momentum=0.1, affine=True, track_running_stats=True)</span><br><span class="line">      (relu): ReLU(inplace=True)</span><br><span class="line">      (conv2): Conv2d(64, 64, kernel_size=(3, 3), stride=(1, 1), padding=(1, 1), bias=False)</span><br><span class="line">      (bn2): BatchNorm2d(64, eps=1e-05, momentum=0.1, affine=True, track_running_stats=True)</span><br><span class="line">    )</span><br><span class="line">  )</span><br><span class="line">  (layer2): Sequential(</span><br><span class="line">    (0): BasicBlock(</span><br><span class="line">      (conv1): Conv2d(64, 128, kernel_size=(3, 3), stride=(2, 2), padding=(1, 1), bias=False)</span><br><span class="line">      (bn1): BatchNorm2d(128, eps=1e-05, momentum=0.1, affine=True, track_running_stats=True)</span><br><span class="line">      (relu): ReLU(inplace=True)</span><br><span class="line">      (conv2): Conv2d(128, 128, kernel_size=(3, 3), stride=(1, 1), padding=(1, 1), bias=False)</span><br><span class="line">      (bn2): BatchNorm2d(128, eps=1e-05, momentum=0.1, affine=True, track_running_stats=True)</span><br><span class="line">      (downsample): Sequential(</span><br><span class="line">        (0): Conv2d(64, 128, kernel_size=(1, 1), stride=(2, 2), bias=False)</span><br><span class="line">        (1): BatchNorm2d(128, eps=1e-05, momentum=0.1, affine=True, track_running_stats=True)</span><br><span class="line">      )</span><br><span class="line">    )</span><br><span class="line">    (1): BasicBlock(</span><br><span class="line">      (conv1): Conv2d(128, 128, kernel_size=(3, 3), stride=(1, 1), padding=(1, 1), bias=False)</span><br><span class="line">      (bn1): BatchNorm2d(128, eps=1e-05, momentum=0.1, affine=True, track_running_stats=True)</span><br><span class="line">      (relu): ReLU(inplace=True)</span><br><span class="line">      (conv2): Conv2d(128, 128, kernel_size=(3, 3), stride=(1, 1), padding=(1, 1), bias=False)</span><br><span class="line">      (bn2): BatchNorm2d(128, eps=1e-05, momentum=0.1, affine=True, track_running_stats=True)</span><br><span class="line">    )</span><br><span class="line">  )</span><br><span class="line">  (layer3): Sequential(</span><br><span class="line">    (0): BasicBlock(</span><br><span class="line">      (conv1): Conv2d(128, 256, kernel_size=(3, 3), stride=(2, 2), padding=(1, 1), bias=False)</span><br><span class="line">      (bn1): BatchNorm2d(256, eps=1e-05, momentum=0.1, affine=True, track_running_stats=True)</span><br><span class="line">      (relu): ReLU(inplace=True)</span><br><span class="line">      (conv2): Conv2d(256, 256, kernel_size=(3, 3), stride=(1, 1), padding=(1, 1), bias=False)</span><br><span class="line">      (bn2): BatchNorm2d(256, eps=1e-05, momentum=0.1, affine=True, track_running_stats=True)</span><br><span class="line">      (downsample): Sequential(</span><br><span class="line">        (0): Conv2d(128, 256, kernel_size=(1, 1), stride=(2, 2), bias=False)</span><br><span class="line">        (1): BatchNorm2d(256, eps=1e-05, momentum=0.1, affine=True, track_running_stats=True)</span><br><span class="line">      )</span><br><span class="line">    )</span><br><span class="line">    (1): BasicBlock(</span><br><span class="line">      (conv1): Conv2d(256, 256, kernel_size=(3, 3), stride=(1, 1), padding=(1, 1), bias=False)</span><br><span class="line">      (bn1): BatchNorm2d(256, eps=1e-05, momentum=0.1, affine=True, track_running_stats=True)</span><br><span class="line">      (relu): ReLU(inplace=True)</span><br><span class="line">      (conv2): Conv2d(256, 256, kernel_size=(3, 3), stride=(1, 1), padding=(1, 1), bias=False)</span><br><span class="line">      (bn2): BatchNorm2d(256, eps=1e-05, momentum=0.1, affine=True, track_running_stats=True)</span><br><span class="line">    )</span><br><span class="line">  )</span><br><span class="line">  (layer4): Sequential(</span><br><span class="line">    (0): BasicBlock(</span><br><span class="line">      (conv1): Conv2d(256, 512, kernel_size=(3, 3), stride=(2, 2), padding=(1, 1), bias=False)</span><br><span class="line">      (bn1): BatchNorm2d(512, eps=1e-05, momentum=0.1, affine=True, track_running_stats=True)</span><br><span class="line">      (relu): ReLU(inplace=True)</span><br><span class="line">      (conv2): Conv2d(512, 512, kernel_size=(3, 3), stride=(1, 1), padding=(1, 1), bias=False)</span><br><span class="line">      (bn2): BatchNorm2d(512, eps=1e-05, momentum=0.1, affine=True, track_running_stats=True)</span><br><span class="line">      (downsample): Sequential(</span><br><span class="line">        (0): Conv2d(256, 512, kernel_size=(1, 1), stride=(2, 2), bias=False)</span><br><span class="line">        (1): BatchNorm2d(512, eps=1e-05, momentum=0.1, affine=True, track_running_stats=True)</span><br><span class="line">      )</span><br><span class="line">    )</span><br><span class="line">    (1): BasicBlock(</span><br><span class="line">      (conv1): Conv2d(512, 512, kernel_size=(3, 3), stride=(1, 1), padding=(1, 1), bias=False)</span><br><span class="line">      (bn1): BatchNorm2d(512, eps=1e-05, momentum=0.1, affine=True, track_running_stats=True)</span><br><span class="line">      (relu): ReLU(inplace=True)</span><br><span class="line">      (conv2): Conv2d(512, 512, kernel_size=(3, 3), stride=(1, 1), padding=(1, 1), bias=False)</span><br><span class="line">      (bn2): BatchNorm2d(512, eps=1e-05, momentum=0.1, affine=True, track_running_stats=True)</span><br><span class="line">    )</span><br><span class="line">  )</span><br><span class="line">  (avgpool): AdaptiveAvgPool2d(output_size=(1, 1))</span><br><span class="line">  (fc): Linear(in_features=512, out_features=1000, bias=True)</span><br><span class="line">)</span><br></pre></td></tr></table></figure><p></p><p>这样你就可以看到很详尽的参数设置了。<br>我们还可以加载所有的参数。<br></p><figure class="highlight python"><table><tr><td class="gutter"><pre><span class="line">1</span><br><span class="line">2</span><br><span class="line">3</span><br><span class="line">4</span><br><span class="line">5</span><br><sp
…
class="line">8</span><br><span class="line">9</span><br><span class="line">10</span><br><span class="line">11</span><br><span class="line">12</span><br><span class="line">13</span><br><span class="line">14</span><br><span class="line">15</span><br><span class="line">16</span><br><span class="line">17</span><br><span class="line">18</span><br><span class="line">19</span><br><span class="line">20</span><br><span class="line">21</span><br><span class="line">22</span><br><span class="line">23</span><br></pre></td><td class="code"><pre><span class="line">VGG(</span><br><span class="line">  (conv1_1): Conv2d(3, 64, kernel_size=(3, 3), stride=(1, 1), padding=(1, 1))</span><br><span class="line">  (conv1_2): Conv2d(64, 64, kernel_size=(3, 3), stride=(1, 1), padding=(1, 1))</span><br><span class="line">  (conv2_1): Conv2d(64, 128, kernel_size=(3, 3), stride=(1, 1), padding=(1, 1))</span><br><span class="line">  (conv2_2): Conv2d(128, 128, kernel_size=(3, 3), stride=(1, 1), padding=(1, 1))</span><br><span class="line">  (conv3_1): Conv2d(128, 256, kernel_size=(3, 3), stride=(1, 1), padding=(1, 1))</span><br><span class="line">  (conv3_2): Conv2d(256, 256, kernel_size=(3, 3), stride=(1, 1), padding=(1, 1))</span><br><span class="line">  (conv3_3): Conv2d(256, 256, kernel_size=(3, 3), stride=(1, 1), padding=(1, 1))</span><br><span class="line">  (conv3_4): Conv2d(256, 256, kernel_size=(3, 3), stride=(1, 1), padding=(1, 1))</span><br><span class="line">  (conv4_1): Conv2d(256, 512, kernel_size=(3, 3), stride=(1, 1), padding=(1, 1))</span><br><span class="line">  (conv4_2): Conv2d(512, 512, kernel_size=(3, 3), stride=(1, 1), padding=(1, 1))</span><br><span class="line">  (conv4_3): Conv2d(512, 512, kernel_size=(3, 3), stride=(1, 1), padding=(1, 1))</span><br><span class="line">  (conv4_4): Conv2d(512, 512, kernel_size=(3, 3), stride=(1, 1), padding=(1, 1))</span><br><span class="line">  (conv5_1): Conv2d(512, 512, kernel_size=(3, 3), stride=(1, 1), padding=(1, 1))</span><br><span class="line">  (conv5_2): Conv2d(512, 512, kernel_size=(3, 3), stride=(1, 1), padding=(1, 1))</span><br><span class="line">  (conv5_3): Conv2d(512, 512, kernel_size=(3, 3), stride=(1, 1), padding=(1, 1))</span><br><span class="line">  (conv5_4): Conv2d(512, 512, kernel_size=(3, 3), stride=(1, 1), padding=(1, 1))</span><br><span class="line">  (relu): ReLU(inplace=True)</span><br><span class="line">  (max): MaxPool2d(kernel_size=2, stride=2, padding=0, dilation=1, ceil_mode=False)</span><br><span class="line">  (fc1): Linear(in_features=25088, out_features=4096, bias=True)</span><br><span class="line">  (fc2): Linear(in_features=4096, out_features=4096, bias=True)</span><br><span class="line">  (fc3): Linear(in_features=4096, out_features=1000, bias=True)</span><br><span class="line">)</span><br></pre></td></tr></table></figure><p></p><p>最后我们随机生成一个张量来进行验证。<br></p><figure class="highlight python"><table><tr><td class="gutter"><pre><span class="line">1</span><br><span class="line">2</span><br><span class="line">3</span><br></pre></td><td class="code"><pre><span class="line">input = torch.randn(<span cla
…
