…
= self.relu(self.conv4_4(x)) x = self.max(x) x = self.relu(self.conv5_1(x)) x = self.relu(self.conv5_2(x)) x = self.relu(self.conv5_3(x)) x = self.relu(self.conv5_4(x)) x = self.max(x) x = x.view(-1, self.num_flat_features(x)) #view函数将张量x变形成一维的向量形式,总特征数并不改变,为接下来的全连接作准备。 x = self.fc1(x) #输入x经过全连接1，然后更新x x = self.fc2(x) x = self.fc3(x) return x def num_flat_features(self, x): size = x.size()[1:] #all dimensions except the batch dimension num_features = 1 for s in size: num_features *= s return num_featuresvgg = VGG()print(vgg) 我们print网络，可以看到输出如下：1234567891011121314151617181920212223VGG( (conv1_1): Conv2d(3, 64, kernel_size=(3, 3), stride=(1, 1), padding=(1, 1)) (conv1_2): Conv2d(64, 64, kernel_size=(3, 3), stride=(1, 1), padding=(1, 1)) (conv2_1): Conv2d(64, 128, kernel_size=(3, 3), stride=(1, 1), padding=(1, 1)) (conv2_2): Conv2d(128, 128, kernel_size=(3, 3), stride=(1, 1), padding=(1, 1)) (conv3_1): Conv2d(128, 256, kernel_size=(3, 3), stride=(1, 1), padding=(1, 1)) (conv3_2): Conv2d(256, 256, kernel_size=(3, 3), stride=(1, 1), padding=(1, 1)) (conv3_3): Conv2d(256, 256, kernel_size=(3, 3), stride=(1, 1), padding=(1, 1)) (conv3_4): Conv2d(256, 256, kernel_size=(3, 3), stride=(1, 1), padding=(1, 1)) (conv4_1): Conv2d(256, 512, kernel_size=(3, 3), stride=(1, 1), padding=(1, 1)) (conv4_2): Conv2d(512, 512, kernel_size=(3, 3), stride=(1, 1), padding=(1, 1)) (conv4_3): Conv2d(512, 512, kernel_size=(3, 3), stride=(1, 1), padding=(1, 1)) (conv4_4): Conv2d(512, 512, kernel_size=(3, 3), stride=(1, 1), padding=(1, 1)) (conv5_1): Conv2d(512, 512, kernel_size=(3, 3), stride=(1, 1), padding=(1, 1)) (conv5_2): Conv2d(512, 512, kernel_size=(3, 3), stride=(1, 1), padding=(1, 1)) (conv5_3): Conv2d(512, 512, kernel_size=(3, 3), stride=(1, 1), padding=(1, 1)) (conv5_4): Conv2d(512, 512, kernel_size=(3, 3), stride=(1, 1), padding=(1, 1)) (relu): ReLU(inplace=True) (max): MaxPool2d(kernel_size=2, stride=2, padding=0, dilation=1, ceil_mode=False) (fc1): Linear(in_features=25088, out_features=4096, bias=True) (fc2): Linear(in_features=4096, out_features=4096, bias=True) (fc3): Linear(in_features=4096, out_features=1000, bias=True)) 最后我们随机生成一个张量来进行验证。123input = torch.randn(1, 3, 224, 224)out = vgg(input)print(out) 其中(1, 3, 224, 224)表示1个3x224x224的矩阵，这是因为VGG输入的是固定尺寸的224x224的RGB（三通道）图像。如果没有报错，那么就说明你的神经网路可以运行通过了。我们也可以使用torch.nn.functional来实现激活函数与池化层，这样的话，你需要还需要多引入一个包：123import torchimport torch.nn as nnimport torch.nn.functional as F #新增 同时，你不需要在init中实例化激活函数与最大池化层，相应的，你需要对forward前馈
…
